examples/windowed_model/windowed_model.onnx (onnx, 162726 bytes, 4 tensors)

model.1.bias f4 [100]
000000 af a0 a1 3e 94 81 8b 3e 51 ef 76 3e 02 e1 72 3e
       0.31567904 0.27247298 0.2411473 0.23718646
000010 7e 4b 3a 3e 54 b3 79 3e 52 75 39 be 4f 93 5c 3e
       0.1819286 0.24384815 -0.1811116 0.21540569
000020 6a 27 6d 3e c6 ea 29 3e 27 5c 69 3e 92 a6 8a 3e
       0.23159567 0.16593465 0.2278906 0.27080208
000030 f6 85 72 3c 77 7b 14 3e 85 fe 20 be 28 15 0a 3d
       0.014802447 0.14500223 -0.15722091 0.033711582
000040 ec c4 b0 3b 8a 13 4a be 32 64 47 3e 98 74 46 3e
       0.0053945687 -0.19734016 0.19471815 0.19380414
000050 0e 05 61 3e 11 2d 4d 3d d5 f9 ad 3e 5d dd 3f 3e
       0.21974584 0.050091807 0.3397967 0.18736787
000060 ff c8 53 3e 18 8b dc bd fb 15 99 3e 7d b8 6f 3e
       0.20682143 -0.107687175 0.29899582 0.2341022
000070 45 92 5d 3e 30 9d 5b 3e 0d c8 43 3e 99 42 80 3e
       0.21637829 0.21446681 0.19119282 0.2505081
000080 65 b4 27 3e 66 25 d5 3d 4c fb 88 3e c0 d3 9f bd
       0.16377409 0.10407524 0.26754224 -0.0780406
000090 09 ef 42 bd f9 0b 0e 3e 57 5e 94 3e e8 83 7a 3e
       -0.047591243 0.13871755 0.28978226 0.2446438
0000a0 73 71 4a 3e 94 38 4f 3e f0 e3 01 3e d2 50 6d 3e
       0.1976984 0.20236427 0.12684608 0.23175362
0000b0 24 3c 19 3e f6 72 82 3e 3a bf 6b 3e b3 5b 0a 3d
       0.14964348 0.25478333 0.23022166 0.033778857
0000c0 c8 29 84 3e 60 0e a9 3d 76 a7 4b 3e 93 58 67 bb
       0.25813127 0.08254695 0.198881 -0.0035300597
0000d0 6a bc 9c 3e 14 6d 4c 3e ff 55 60 3e d0 3e 43 3e
       0.306125 0.19963485 0.21907805 0.1906693
0000e0 b5 05 36 3c a4 6e ca bd 83 6e 80 3e 04 84 6e 3e
       0.011109759 -0.09884384 0.25084314 0.23292547
0000f0 e4 ca b2 bd 9d a2 98 bd c7 a6 23 3e c4 b8 b7 3e
       -0.087301046 -0.07452891 0.1598159 0.35883152
000100 30 ae 85 3e e4 03 3d 3e c3 9f 80 3e 76 75 77 3e
       0.26109457 0.18458515 0.2512189 0.24165902
000110 48 42 2e 3e 8c 32 1f be 14 7e 61 bd 86 dc b0 3e
       0.17017472 -0.15546626 -0.055051878 0.34543246
000120 29 79 94 3e 26 86 b2 bd 54 5a 26 3e 90 5d 07 3e
       0.28998688 -0.08716993 0.16245395 0.13219285
000130 bc 08 73 3e c6 c9 96 3e a1 84 83 3e 57 c3 21 3e
       0.237338 0.29450816 0.25687125 0.15797172
000140 a2 d1 5c 3e b4 ea 78 3e cb 20 c0 bc 75 52 3f bd
       0.21564344 0.24308282 -0.023453137 -0.046709497
000150 af 7c 4a 3e 9c 7f 84 3e a5 5c b0 3e 39 34 c8 3d
       0.19774126 0.25878608 0.34445682 0.09775586
000160 8e 79 7a 3e 6b c3 46 3e 4e eb 18 be cd fd 9e 3e
       0.24460432 0.19410484 -0.14933512 0.3105301
000170 fe d5 cf 3d 9d 1e bb bd ba a8 65 3e d2 63 a9 3e
       0.10148238 -0.091366984 0.22427645 0.3308397
000180 26 c2 67 3e ad 63 64 3e 30 14 84 3e 1d 04 7f 3e
       0.22632656 0.22303648 0.25796652 0.24903913

model.1.weight f4 [100, 400]
000000 ec 19 fa 3d d7 03 2b 3d 0e 29 25 3e 9e ad 20 3e
       0.122119755 0.04175171 0.16128942 0.1569123
000010 fe f0 22 3d 41 dc c4 3d e6 d0 07 3d ab f0 15 3e
       0.03978061 0.096123226 0.033158205 0.14642589
000020 13 0e 62 3d f0 26 af bd 29 5e 9f 3b b9 40 e5 3d
       0.055189203 -0.085523486 0.0048635197 0.111939855
000030 44 ff 0f 3d ea d9 05 be b3 2f 23 3e 7c a4 c9 3b
       0.03515555 -0.13071409 0.15936165 0.0061536413
000040 2e 51 c7 3d bb 3f 97 3d 6f 1d 02 3e 61 7a 0c 3b
       0.09732281 0.073852025 0.1270654 0.0021435248
000050 cf 4b 8c 3d 5a 55 b4 3d c4 56 92 3d 36 b7 33 3b
       0.06850397 0.08805342 0.071454555 0.0027422435
000060 32 45 4e 3d 77 ea 4c 3e f8 65 4c 3d 4f 26 a2 3d
       0.05035896 0.20011316 0.049901932 0.07917463
000070 e7 0a cb bb 0e ba 41 3d ec ea 11 3e c8 f5 93 3c
       -0.006196368 0.047296576 0.14249772 0.018061534
000080 3e 71 9b 3c ff ab aa 3c db 39 17 3e 20 7e 96 3d
       0.018974897 0.020833967 0.14768164 0.07348275
000090 20 8a 0a 3e 4c a6 c7 3d ec 20 99 3d ec 5d 0b 3e
       0.13529253 0.097485155 0.074769825 0.13610047
0000a0 4b 55 05 3e 93 b4 e5 3d f2 74 15 bd c0 9b 3e bd
       0.13020818 0.112160824 -0.03648848 -0.046535254
0000b0 0d 09 d9 bc 30 78 c9 bc ef ee 9b 3d 37 46 a7 3c
       -0.026493574 -0.024593443 0.07613932 0.020419223
0000c0 fd 89 f2 bd 38 e8 cf 3d fa ab b8 3b 5f db 97 3d
       -0.118427254 0.10151714 0.0056357356 0.074148886
0000d0 07 7c 8d 3d 42 10 a4 3d 61 44 72 3d e6 9b 8a 3d
       0.06908422 0.080109134 0.059147242 0.067680165
0000e0 e2 a7 99 3d 5f e7 d6 3c bc bd e6 bb 37 88 99 bc
       0.07502724 0.026233373 -0.007041661 -0.01874171
0000f0 ee fd 15 3c e0 fb 6f bd a3 88 4d bd f9 f3 47 bd
       0.00915478 -0.058589816 -0.050179135 -0.048816655
000100 ea be 02 bb f4 1d be bc 35 dc d5 3c 25 3c 31 3d
       -0.001995022 -0.023207642 0.02610598 0.04327025
000110 f7 35 63 bc ed ba 46 bd a0 f7 b7 3c fe 7e 7b bd
       -0.013867847 -0.04851811 0.022456944 -0.061400406
000120 e5 aa b1 bc c6 6f 6f bc f3 42 23 3d 74 0c 1f 3d
       -0.021687934 -0.014614051 0.03985877 0.038830236
000130 2c 2d 5c bd fe 5b 2e bd 2a fe 03 3d ce 2b 3d bb
       -0.053754017 -0.0425682 0.03222481 -0.002886522
000140 27 57 71 bd b0 6c 77 3d 9f af 0a 3d fb 9a 41 3d
       -0.058921006 0.060406387 0.03385889 0.04726694
000150 96 90 77 3c 25 2b 99 bd 69 9b 92 3d 4e 49 9d bd
       0.015110156 -0.07478932 0.071585484 -0.076799974
000160 f4 24 15 bd 96 ef 01 bd f1 3d a6 bc ce b3 82 bd
       -0.036412194 -0.031722628 -0.020293208 -0.06381951
000170 1b 1f 9c 3c 84 f6 10 bd 2a cc 9d 3d 20 e6 ea 3c
       0.019057801 -0.035391346 0.07704957 0.028674185
000180 81 7a 8f 3d 46 f9 bb 3d ce 15 dd 3d e9 2c 2d 3e
       0.07005788 0.091784045 0.107951745 0.16911663
000190 fe 39 a1 3d 90 3d cd 3d ac d7 df 3d d4 37 33 3e
       0.07872389 0.10021508 0.10929808 0.17501765
0001a0 8b fe 37 3d 92 82 18 3e f6 44 e9 3d 1c c5 19 3e
       0.044920485 0.14893559 0.113901064 0.15016598
0001b0 ce 7c f8 3d 8c e4 0a 3d e4 a2 d8 3d ea 79 1f 3e
       0.121331796 0.033909366 0.10577944 0.1557385
0001c0 81 21 82 3d 94 47 e3 3d 27 71 bb 3d 74 7e e0 3d
       0.063540466 0.11097637 0.091524415 0.10961619
0001d0 5b 1e 7e 3d 2e 22 f1 3d 00 4b 9b 3d 0d c9 9e 3d
       0.062040668 0.117740974 0.075826645 0.07753191
0001e0 37 f4 c4 3d 04 6c 29 3d 17 96 7f 3c 00 50 61 bd
       0.09616893 0.041362777 0.015599749 -0.055007935
0001f0 48 2d ce 3d 66 e3 21 3e 51 d5 cb 3a 84 a3 b2 3d
       0.100672305 0.15809402 0.0015551244 0.087225944
000200 d4 bb b1 3d a9 7b 1d 3e 07 29 ed 3d 98 63 f6 3d
       0.086784035 0.15379204 0.11580091 0.12030715
000210 16 ed 9e 3d a2 e0 2b 3e db a1 19 3e 87 cf c5 3d
       0.07760064 0.1678491 0.15003149 0.09658723
000220 c7 10 28 3d 56 ab c9 3d 1e 91 e8 3d 23 87 8b 3d
       0.041031625 0.09847133 0.11355804 0.06812885
000230 4d cc 54 3d ea 60 52 bd 0a 40 30 bd b6 53 80 3d
       0.05195265 -0.051361956 -0.043029822 0.062659666
000240 f3 e3 de 3d b1 cc 5e bd 1d 9d 02 3d 7a 1b b7 3c
       0.108833216 -0.054394428 0.031888116 0.022351969
000250 37 4b 54 3d c3 de d1 3c 5c 6c 1d bd 28 c2 a0 bc
       0.051829543 0.025618916 -0.038433418 -0.01962383
000260 ea b7 c0 3d 1b 5e 4e 3d 33 20 3c 3d ab c1 ef bc
       0.09410079 0.050382715 0.045929145 -0.029267153
000270 80 ac 02 bd bf d8 ac bc f7 3c 2b 3d a2 ef db bb
       -0.03190279 -0.021099446 0.041806187 -0.006711916
000280 64 32 07 3d 99 90 44 3d 82 f9 16 3d 13 d1 0a 3e
       0.03300704 0.04798946 0.036859043 0.13556318
000290 d5 61 07 3d 6f 44 de bc 49 f1 82 3d 29 40 76 3b
       0.033052284 -0.027132241 0.06393678 0.0037574864
0002a0 47 6e 0e bd 8a ca a3 3a cf aa 7c 3d 7c cd 20 3d
       -0.034773137 0.0012496274 0.061686333 0.039258465
0002b0 19 2f 0c bb 93 ea af 3d 99 90 b9 3d ff 5b ab 3d
       -0.0021390377 0.08589663 0.09060783 0.08367156
0002c0 36 a2 a8 3c 99 14 93 3b 23 30 b4 3d 70 d5 1a 3d
       0.02058516 0.0044885394 0.08798244 0.037801206
0002d0 31 b5 a5 bd 6e 79 7b bc 72 29 70 bd 0e 71 fc bb
       -0.080912 -0.015348775 -0.058633275 -0.007703907
0002e0 9e 80 17 bc d7 2d 9c bd 01 e2 be 3c dd aa 12 3c
       -0.009246973 -0.07625931 0.023301126 0.00895187
0002f0 e4 4e d9 3b a8 23 0a 3c 05 fd 38 bd 42 a9 7f 3d
       0.006631719 0.008431353 -0.045163173 0.062417276
000300 55 23 31 3d 66 85 a6 bc 1c 40 ac bd f5 2d 2b bc
       0.043246586 -0.020327281 -0.084106654 -0.010447969
000310 94 df cc 3c 11 49 e3 bd 7a 79 ea bd 7e 51 a6 bd
       0.025008954 -0.11097921 -0.11448951 -0.08121012
000320 5e 66 73 3e ba 9c 6d 3e ac d6 45 3e 09 a4 38 3e
       0.23769519 0.23204318 0.19320172 0.18031324
000330 37 50 88 3d de 7c 5d 3e 16 2d 09 bd bf 28 98 3c
       0.06655925 0.21629664 -0.033490263 0.018574117
000340 b8 b0 58 bd fe 7a 72 bd ef 69 d8 bb 06 9b 22 bd
       -0.052902907 -0.059199326 -0.006604425 -0.039698623
000350 c1 d2 6a bd d9 31 1c be dd 43 a9 bd 5a 27 ad 3c
       -0.057329897 -0.1525339 -0.08264897 0.021136928
000360 0a 18 eb bd 6c d5 bb bd 05 78 d9 bd 92 5b e2 bc
       -0.114791945 -0.09171566 -0.10618595 -0.027631555
000370 1b a4 48 3d 32 ed 9d 3c d9 37 4d 3d e8 41 63 3d
       0.04898463 0.019278143 0.05010209 0.055482775
000380 74 19 84 3d 99 fd 93 3d ba 4d 0c 3e a4 a9 1d 3d
       0.06450167 0.07226104 0.13701525 0.03849186
000390 aa 69 a5 3d 3e 49 e3 3b 12 04 8b 3d 9f 92 ed 3d
       0.080767944 0.0069362214 0.06787886 0.116002314
0003a0 9a 67 32 bd a1 74 3c 3d 40 c4 1d 3d 09 1e fa 3d
       -0.043555833 0.046009663 0.038517237 0.1221276
0003b0 70 72 78 3d 0b 19 7d bd 10 39 d1 3c 49 61 0d bd
       0.06065601 -0.06179146 0.025539905 -0.034516606
0003c0 b4 9f 94 3d 26 0a 6b bc db 16 e6 bc 22 38 89 bc
       0.072570235 -0.014345681 -0.02808707 -0.016750399
0003d0 e7 c2 2a 3d 5b a0 e2 3c 71 03 6a 3d 02 b8 a2 bb
       0.04168978 0.027664354 0.05713219 -0.004965783
0003e0 a3 c8 a5 bd 69 31 af 3d ac fd 62 3d c4 24 6b bd
       -0.08094909 0.08554346 0.0554177 -0.05740811
0003f0 ea 79 3d 3d cc 85 b1 3d cf e5 5c bb ab ce 9b 3c
       0.046258844 0.08668098 -0.0033706313 0.019019445

model.3.bias f4 [4]
000000 f8 38 89 3d ee 4d 24 3d a1 ee fa bd 23 ea 45 be
       0.06700319 0.040113382 -0.12252546 -0.19327597

model.3.weight f4 [4, 100]
000000 c7 d1 11 3e f9 a0 7f 3d 67 f4 88 3e 1f d2 a9 3e
       0.1424018 0.062409375 0.26748964 0.33168122
000010 50 05 b7 3e 53 50 87 3e 75 6f b1 be 07 a6 dc 3e
       0.3574624 0.2642847 -0.34655347 0.4309542
000020 fc 5b ba 3e d0 9a 6d 3e 47 3a 94 3e 2c c9 ac 3e
       0.36398304 0.23203588 0.28950712 0.33747232
000030 40 23 84 be f0 72 d5 bd 5c 43 9f be 7f 06 a9 be
       -0.25808144 -0.10422313 -0.3110608 -0.3301277
000040 83 89 ed be aa 72 a9 be 6f 3a bd 3e 3f bc 52 3e
       -0.46393976 -0.33095294 0.36958644 0.20579623
000050 69 07 6e 3e 75 d0 c2 be b9 03 b3 bc 88 76 70 3e
       0.23245014 -0.38049665 -0.021852361 0.23482716
000060 f5 d9 ab 3e 2b 0f 70 be 1f 9d 9d 3e 7d 59 a4 3e
       0.33564726 -0.23443286 0.30783936 0.32099524
000070 8f 1b 8b 3e 2a 2d f5 3e 86 8b 84 3e a9 3c 95 3e
       0.27169463 0.4788602 0.25887698 0.29147843
000080 fc 62 80 3e 8a 0e 81 3e f1 32 8f 3e 10 ab 64 be
       0.2507552 0.25206405 0.27968553 -0.2233088
000090 56 f0 ae bd 9c 21 5c 3d 4d 48 85 3e 5c 53 f6 3d
       -0.08541934 0.05374299 0.26031724 0.12027618
0000a0 08 1a b5 3d e0 8a 05 3e 42 10 2d 3e 68 fc a6 3e
       0.08842856 0.13041258 0.16900733 0.32614446
0000b0 17 d3 a5 3c e6 cf 90 3e 95 75 a8 3e c3 41 88 be
       0.020242257 0.28283614 0.32902208 -0.26612672
0000c0 77 ac 89 3e 57 dd f9 be 11 3b a0 3d 47 de 25 be
       0.26889393 -0.4880168 0.07823766 -0.16198073
0000d0 7b 97 05 3e 74 d9 c4 3e 05 91 7c 3e be b2 ab 3e
       0.13046066 0.38447154 0.24664696 0.33534807
0000e0 88 53 b7 be a3 92 8c be 7a 34 9a 3e b7 42 09 3e
       -0.35805917 -0.27455625 0.3011816 0.13404356
0000f0 fb 3a 89 be cb 05 d4 be 33 54 7a 3e fd ce bd 3e
       -0.2680281 -0.4141067 0.24446182 0.37071982
000100 82 09 8e 3e 45 78 4e 3e 5d df 8b 3e d6 5a 73 3e
       0.2774163 0.20163067 0.2731885 0.2376512
000110 ae e9 a8 3e 0b 4c f2 be 3f ed cb be 7e 7a 76 3e
       0.32990783 -0.4732364 -0.39829442 0.24070165
000120 12 28 89 3e 3e 47 9f be 21 73 8e 3e 43 ba 83 3e
       0.26788384 -0.3110904 0.2782221 0.25728044
000130 84 29 a4 bb 35 65 42 3e 2f 7b aa 3e 66 d1 8b 3e
       -0.005009832 0.1898392 0.33297107 0.27308196
000140 a8 32 cb 3d 81 ac 9b 3e 75 ef e0 be 36 27 5f be
       0.09921771 0.30405048 -0.4393269 -0.21792302
000150 61 74 b1 3d 61 88 7f 3e a2 01 ba 3e a5 0d 12 be
       0.08664776 0.24954368 0.3632937 -0.14263017
000160 fd c5 8d 3e 0b 6d ab 3e 97 2e b5 be 47 6a d0 3c
       0.27690116 0.3348163 -0.35387108 0.025441302
000170 d5 ee f3 bd ad bc ad be 8a af a7 3e ae b4 5a 3e
       -0.11910788 -0.3393301 0.32751113 0.21357986
000180 1f df 8a 3e 83 d7 d6 3e bb 7c 62 3e 9b b8 4a 3e
       0.27123353 0.41961297 0.22117893 0.19796984
000190 45 6e 74 3e fb f9 d4 3e bc ce 2e be e7 58 03 be
       0.2387019 0.4159697 -0.1707105 -0.12826882
0001a0 ee 33 dd bd 59 44 91 be 6d 4a ec 3d f8 89 7b be
       -0.108009204 -0.28372458 0.11537633 -0.2456435
0001b0 16 d2 6a be 70 9d a7 be 24 1e e7 be bc 30 2c be
       -0.22931704 -0.32737303 -0.45140183 -0.16815466
0001c0 09 0d 73 3e eb 67 78 3e 13 88 a4 bd ab 05 0d bf
       0.23735441 0.24258392 -0.080337666 -0.55086774
0001d0 7c a0 9e 3e 78 b6 3c bc c0 3e b9 be c6 d2 cb be
       0.30981815 -0.011518113 -0.36180687 -0.39809245
0001e0 a4 52 bf be 27 eb f8 3d 0a 43 a2 3e 29 8c eb be
       -0.37367737 0.12154227 0.31691772 -0.4600537
0001f0 63 f5 01 bf 3e 73 02 3e 18 88 93 bd a3 e8 c3 be
       -0.50765055 0.12739274 -0.07203692 -0.38263425
000200 3c 30 9f be 3e 9b a0 3d ff d2 a2 be 39 fa 3f bb
       -0.31091487 0.0784211 -0.31801602 -0.0029293431
000210 5a e2 69 3b e2 8b a6 be 67 67 f2 bd 94 ec 20 bf
       0.0035687895 -0.32528597 -0.11836129 -0.6286099
000220 94 79 df be f8 8b ed be a1 f6 c8 3c e9 d2 f3 be
       -0.43647444 -0.4639585 0.024531664 -0.4762185
000230 75 85 ec be 10 3c fc be 72 20 92 be d6 b9 8d be
       -0.4619557 -0.49264574 -0.2854038 -0.27680844
000240 d7 90 00 bf 1c a1 ad bd bf 2e 85 be 21 59 95 be
       -0.5022101 -0.08477995 -0.26012227 -0.29169562
000250 15 cb cc be 44 26 a0 3e b9 48 c4 be 19 9e 11 3e
       -0.3999869 0.31279194 -0.38336733 0.14220466
000260 7e f9 54 3e 34 db c1 be 35 92 c2 be 26 79 36 be
       0.20798299 -0.3786255 -0.38002172 -0.17819652
000270 c9 ab e7 be a7 3a ba be 45 09 cd be 0c 0e cb 3d
       -0.4524825 -0.36372873 -0.40046135 0.099147886
000280 07 b5 b3 be 7a 84 70 3d 30 e3 8a be 9f 85 04 bf
       -0.3509905 0.05872009 -0.27126455 -0.5176639
000290 30 de 0d be 2b 14 ca be ce 75 ea be 1d bd 82 bd
       -0.13854289 -0.39468512 -0.45793003 -0.06383727
0002a0 bd 7a 0e bf 2a 21 87 3c f1 c0 20 3e 34 c3 7d be
       -0.55656034 0.016495306 0.15698601 -0.24781495
0002b0 8e 19 29 3e 3a 28 02 be 39 b4 c2 be 0e 2e ea be
       0.16513655 -0.12710658 -0.38028124 -0.45738262
0002c0 fe ae b3 3e 59 10 c3 be ff f1 56 be 28 b7 80 be
       0.35094446 -0.3809841 -0.20990752 -0.25139737
0002d0 c0 77 e2 be 9d a1 b6 be 92 5e 60 3e 58 93 ac 3e
       -0.44231987 -0.35670176 0.21911076 0.33706164
0002e0 e1 41 c1 be 27 b7 92 be 31 1e af be c3 a4 2e 3e
       -0.37745574 -0.2865536 -0.34202722 0.17055039
0002f0 18 57 dd be 39 28 97 be 13 6f 20 bd 2e 26 36 be
       -0.4323051 -0.29522875 -0.03916843 -0.17788002
000300 5f 59 37 3d 8b 3f 0f bf 34 71 ca be 1e a4 fb 3d
       0.044762965 -0.55956334 -0.39539492 0.12287162
000310 4d db 95 be d9 9c c6 be c9 79 a2 be ed 1c 53 3d
       -0.29268876 -0.3879154 -0.3173354 0.051541258
000320 15 6e 17 bf 40 e4 1b bf d7 5c 9b 3c 4b 68 56 be
       -0.59152347 -0.60895157 0.018965168 -0.20938222
000330 98 0e 8e be 5a 21 0a be 5b 6e 92 3e af 70 99 be
       -0.2774551 -0.13489285 0.2859982 -0.29968783
000340 15 30 95 be bc 77 34 be 8d 0c a9 be d5 aa 1f be
       -0.29138246 -0.176238 -0.33017388 -0.15592511
000350 32 02 87 be f3 03 12 bf 21 d9 a5 3e 38 dd ec 3e
       -0.26368862 -0.57037276 0.3239222 0.46262527
000360 37 06 55 be 34 4b 90 3e 09 56 be be 91 93 39 bd
       -0.20803152 0.28182375 -0.37175015 -0.045306746
000370 ff 12 47 3c aa 43 be be 0d ce 28 3e 0b 38 28 be
       0.012150525 -0.37161 0.16484852 -0.16427629
000380 75 12 62 be f0 24 a6 3e 8c 2a 95 bd aa 1d 91 be
       -0.22077353 0.32450056 -0.07283506 -0.28342944
000390 1b e6 c3 3c b6 75 bc be a8 0d 57 bc 09 4b 5e be
       0.023913434 -0.36808556 -0.0131258145 -0.21708311
0003a0 06 81 02 bf fd 21 b1 be 5f f5 bc be c3 ec aa 3e
       -0.50978124 -0.34596244 -0.36905953 0.3338376
0003b0 25 3a ec 3d 51 a3 6a 3e 67 6c db b9 80 bb 43 3e
       0.11534528 0.22913863 -0.000418517 0.19114494
0003c0 32 f6 71 3e 9d cb 18 3e c0 55 d3 be be 11 4a be
       0.23629072 0.14921422 -0.4127636 -0.1973333
0003d0 98 ba 72 3e b1 4e 87 be 49 4f 85 be 87 64 95 3e
       0.23703992 -0.26427224 -0.26037052 0.2917826
0003e0 50 23 6c bd a5 b9 7b be a7 43 7d 3e 34 8c aa be
       -0.057650864 -0.24582537 0.24732839 -0.33310091
0003f0 ba 33 0b bf 54 6a b2 be 3c 9f 4f be 86 3c 8c be
       -0.54375803 -0.34846747 -0.20275587 -0.27389926
