tests/test_model.onnx (onnx, 367502 bytes, 3 tensors)

sequential_2/dense_8/MatMul/ReadVariableOp:0 f4 [256, 2]
0	0x3e0f1590	0.13973069
1	0xbd91375c	-0.07090637
2	0x3e19c132	0.15015104
3	0x3dea8610	0.11451352
4	0xbcd20620	-0.025637686
5	0x3de9956c	0.11405453
6	0xbde2d9c8	-0.11076695
7	0xbdf34114	-0.11877647
8	0xbda90f18	-0.08254832
9	0xbcb52dc0	-0.022116542
10	0x3d073844	0.033012643
11	0x3e06294c	0.13101691
12	0x3daafdb0	0.08349168
13	0x3d22146c	0.039570257
14	0x3de05e04	0.10955432
15	0x3e10ff6e	0.14159939
16	0xbded4b5a	-0.11586638
17	0x3d09b81c	0.033622846
18	0x3d44c12c	0.048035786
19	0xbdbb5b78	-0.09148306
20	0x3d5db574	0.054128125
21	0x3d42a01c	0.047515973
22	0xbcccc628	-0.024996832
23	0x3d66efe4	0.05638112
24	0xbdf2e0a0	-0.1185925
25	0x3dc10898	0.09425467
26	0x3da99b34	0.08281556
27	0xbb8aa040	-0.004230529
28	0xbdd47c8c	-0.10375318
29	0xbca979c8	-0.020687953
30	0x3d76e81c	0.06027995
31	0x3c63f7b0	0.013914034
32	0xbd6065d4	-0.05478461
33	0x3e12d442	0.14338782
34	0xbcfc4674	-0.030795313
35	0x3bcf91e0	0.0063345283
36	0xbd80565e	-0.06266473
37	0x3dcbced0	0.09951556
38	0xbc7f3240	-0.015575945
39	0x3dc7e21c	0.09759924
40	0xbdd553af	-0.10416352
41	0xbdd75a3c	-0.10515258
42	0xbe00164d	-0.12508507
43	0x3e052228	0.13001311
44	0xbde9b1b0	-0.11410844
45	0x3de95fc8	0.11395222
46	0xbbc32ca0	-0.0059562474
47	0xbd5fe88e	-0.05466514
48	0xbdcab7cc	-0.09898338
49	0xbc33bf60	-0.01097092
50	0x3e12d67e	0.14339635
51	0x3dcf4cc4	0.10122064
52	0xbd3998ea	-0.045311846
53	0x3df9bfe4	0.12194803
54	0x3d4bca1c	0.049753293
55	0x3c1151e0	0.008869618
56	0x3df1b2fc	0.11801717
57	0xbc8e3190	-0.017357618
58	0x3d4e545c	0.05037342
59	0x3dc91c40	0.098198414
60	0xbc74e1c0	-0.014946401
61	0x3d64aa84	0.05582668
62	0x3da92b06	0.08260159
63	0xbdd778f2	-0.10521115
64	0xbcc39aa8	-0.023877457
65	0x3d7516d4	0.059836224
66	0xbd94bd81	-0.072627075
67	0x3a61cb00	0.0008613318
68	0xbde15862	-0.11003186
69	0xbdf135ea	-0.117778614
70	0x3e0160a2	0.12634519
71	0xbd94f667	-0.0727356
72	0x3da28b02	0.0793667
73	0x3df2f7ec	0.118636936
74	0xbdcd4074	-0.10022059
75	0xbc058de0	-0.008151501
76	0xbd449bbc	-0.048000082
77	0x3c14a3e0	0.009072274
78	0xbb845ca0	-0.004039362
79	0xbdf70412	-0.12061323
80	0x3dcbca10	0.0995065
81	0xbddc8b78	-0.10768789
82	0xbbfddd60	-0.007747337
83	0xbdd183c5	-0.10230211
84	0x3d58d490	0.05293709
85	0xbd349604	-0.04408838
86	0xbdaab0b6	-0.08334486
87	0xbe15fe0e	-0.14647695
88	0x39916800	0.0002773404
89	0x3d891632	0.066936865
90	0x3d566370	0.052340925
91	0x3dd8f788	0.10594088
92	0xbe020b3d	-0.126996
93	0xbdd80833	-0.10548439
94	0xbdc81a24	-0.09770611
95	0xbdfcab8c	-0.123374075
96	0x3d92f2b0	0.07175195
97	0x3d7ab980	0.061212063
98	0xbba6caa0	-0.0050900728
99	0xbcefcc74	-0.029272296
100	0xbe19a033	-0.15002517
101	0xbd292104	-0.04129125
102	0xbcbe71f0	-0.023247689
103	0x3cc61488	0.024179712
104	0xbe0d80b8	-0.13818634
105	0xbdbcc3ff	-0.09217071
106	0xbe0dc38b	-0.13844125
107	0xbc36f2e0	-0.011166304
108	0xbb05a600	-0.0020393133
109	0xbdac9cf1	-0.08428372
110	0x3d2082e4	0.039187327
111	0x3d6ceb8c	0.057841823
112	0xbd0f0402	-0.03491593
113	0x3da048f2	0.07826413
114	0x3dfd22ac	0.12360129
115	0xbc846ba8	-0.016164616
116	0xbdc48e24	-0.09597424
117	0x3dcfe5e0	0.10151267
118	0xbdded1ec	-0.10879883
119	0xbdec58ba	-0.11540361
120	0x3d0861e8	0.033296496
121	0xbd34c80a	-0.044136085
122	0xbd9522e0	-0.072820425
123	0x3dbcc528	0.09217292
124	0xbe07bb27	-0.13254987
125	0x3e0a6544	0.13515192
126	0xbe1663fd	-0.1468658
127	0xbdf9d408	-0.12198645
128	0x3d10a0f0	0.035309732
129	0x3e06ae12	0.1315234
130	0xbe08f1a4	-0.13373429
131	0xbdc79d34	-0.09746781
132	0x3d49febc	0.0493152
133	0x3dc8a19c	0.097964495
134	0x3d261098	0.04054317
135	0x3d8a1db6	0.06743948
136	0x3dc46038	0.09588665
137	0x3e18b488	0.14912617
138	0xbdd114dd	-0.102090575
139	0xbdf23da4	-0.11828163
140	0x3e051e9a	0.12999955
141	0xbdbf1dc2	-0.09331848
142	0x3cc89f00	0.02448988
143	0xbdd83894	-0.105576664
144	0x3e16e71c	0.14736599
145	0x3cf8df60	0.030379951
146	0x3cc7dc58	0.02439706
147	0xbc933f60	-0.017974555
148	0x3d950572	0.07276429
149	0x3bffcde0	0.0078065246
150	0x3d8ef1f6	0.06979744
151	0xbdbb5012	-0.091461316
152	0x3c8eedf8	0.017447457
153	0x3d311584	0.04323341
154	0x3da39724	0.07987812
155	0x3e16e58e	0.14736006
156	0xbb496300	-0.0030729175
157	0xbe0cbc57	-0.13743721
158	0xbd499c3a	-0.049221255
159	0xbd6a0d3a	-0.05714152
160	0x3d698e0c	0.057020232
161	0xbe137cb1	-0.14403035
162	0x3e017012	0.12640408
163	0xbd87e8e4	-0.06636217
164	0xbdb364c6	-0.087594554
165	0xbd8acfa8	-0.067778885
166	0x3a008e00	0.0004903972
167	0xbdc1cf08	-0.09463316
168	0xbcf0ea8c	-0.029408716
169	0x3d8c2286	0.06842522
170	0x3e12a8cc	0.14322203
171	0xbe10b2b2	-0.14130667
172	0x3dd42d30	0.10360181
173	0xbe0c15dc	-0.13680214
174	0x3d59d108	0.053177863
175	0xbc889668	-0.016673282
176	0xbe0c6c19	-0.13713111
177	0x3e0eb274	0.13935262
178	0xbda3b1dd	-0.07992909
179	0x3b035f80	0.0020045936
180	0xbdca728c	-0.09885129
181	0x3d9ed42e	0.07755314
182	0x3dfc38bc	0.12315509
183	0x39985e00	0.00029061735
184	0xbe1a6bdd	-0.15080209
185	0xbddc31ab	-0.10751661
186	0x3e0eeb68	0.13956988
187	0x3e0ff688	0.14058888
188	0x3e0a5708	0.13509762
189	0x3dfa63f8	0.12226099
190	0xbb8a89a0	-0.004227832
191	0xbdfa2018	-0.12213153
192	0x3d8302fe	0.06397055
193	0xbd8a2b65	-0.06746558
194	0x3c898338	0.016786203
195	0x3db09ab8	0.0862326
196	0x3e0ca74a	0.1373569
197	0xbc5234a0	-0.01282993
198	0x3e182254	0.14856845
199	0x3d7ee00c	0.062225387
200	0x3c3ff6b0	0.01171653
201	0xbe0faef8	-0.14031589
202	0x3d965098	0.07339591
203	0xbdcad50f	-0.09903919
204	0x3dfc0034	0.12304726
205	0x3d9c1516	0.07621209
206	0xbe0ecac9	-0.13944544
207	0xbde7f352	-0.113257065
208	0x3df4bd08	0.11950117
209	0x3e1bcc64	0.15214688
210	0x3d680818	0.056648344
211	0xbd0844f6	-0.03326889
212	0xbdb8b10a	-0.090181425
213	0x3c82dcf8	0.015974507
214	0xbe194008	-0.14965832
215	0x3db42410	0.08795941
216	0x3db276fe	0.08714102
217	0x3e1b0816	0.15139803
218	0xbdf66f58	-0.12032956
219	0x3ca39f28	0.019973353
220	0x3d895b1e	0.06706832
221	0xbe02c2a1	-0.12769558
222	0x3d9dc958	0.07704419
223	0xbda2c4eb	-0.07947715
224	0x3dc93370	0.09824264
225	0x3e1583b6	0.14601025
226	0x3d921c64	0.07134321
227	0x3e15dbd2	0.14634636
228	0xbd0b46a0	-0.0340029
229	0x3c903eb0	0.017608017
230	0x3d41b9c0	0.047296286
231	0x3e1b6962	0.15176919
232	0xbbc0b1e0	-0.0058805794
233	0x3db0bf82	0.08630277
234	0xbdd698d9	-0.10478372
235	0x3db7bb70	0.08971298
236	0xbdb314c5	-0.08744196
237	0xbcf2cecc	-0.029639624
238	0xbda740aa	-0.081666306
239	0x3c9820b8	0.018570289
240	0xbdb89c1c	-0.090141505
241	0xbda1d793	-0.07902446
242	0x3d1f8294	0.03894289
243	0x3c1e7f70	0.009673938
244	0xbd942612	-0.07233824
245	0x3bc700e0	0.0060731024
246	0x3de00c60	0.1093986
247	0xbe0d7962	-0.13815835
248	0xbd9daa55	-0.07698504
249	0x3c877310	0.016534358
250	0x3de1839c	0.110114306
251	0xbdc40377	-0.09570973
252	0x3e007064	0.12542874
253	0xbcf379e8	-0.029721215
254	0x3c9fab18	0.019490764
255	0x3e0ddc40	0.1385355

sequential_2/dense_7/MatMul/ReadVariableOp:0 f4 [256, 256]
0	0x3d98afb7	0.0745539
1	0xbd394bb4	-0.04523821
2	0xbd9f8baa	-0.07790311
3	0x3cb3b3a4	0.021936245
4	0x3d82aaf7	0.06380265
5	0x3d1ee2fe	0.038790695
6	0xbd62c5e0	-0.05536449
7	0x3d4cd1c2	0.05000473
8	0x3d1b28ae	0.037880592
9	0xbc35d320	-0.011097699
10	0xbddd0668	-0.107922375
11	0xbdbd72ae	-0.09250389
12	0xbcc4aa2c	-0.024006926
13	0x3c416770	0.011804447
14	0xbc68f248	-0.014217921
15	0xbdaeeee0	-0.085416555
16	0x3da65ecb	0.08123549
17	0xbda10382	-0.07861997
18	0x3bdb56f0	0.0066937134
19	0xbc997d34	-0.01873646
20	0xbdcc5960	-0.099779844
21	0xbcb165b8	-0.021654949
22	0xbd8e2208	-0.06940085
23	0x3dc0f5a7	0.094218545
24	0xbd2135a8	-0.03935781
25	0xbd5ed085	-0.05439808
26	0x3d6e2f2a	0.058150448
27	0x3c543650	0.012952402
28	0xbca9320c	-0.020653747
29	0x3d8b8081	0.068116195
30	0xbd047408	-0.03233722
31	0x3b3a0f60	0.0028390512
32	0x3dd56e77	0.1042146
33	0xbc4d7260	-0.012539476
34	0x3d64aae2	0.05582703
35	0x3d53510a	0.051590957
36	0x3d0e42b2	0.034731574
37	0xbd9e0b84	-0.0771704
38	0x3dbae82f	0.09126317
39	0xbd529eee	-0.0514211
40	0x3d96e277	0.073674135
41	0xbd3b21fc	-0.045686707
42	0xbc244c98	-0.010028027
43	0xbc4abc28	-0.0123739615
44	0x3d0ac85e	0.03388249
45	0xbdafc796	-0.0858299
46	0xbd1d2952	-0.038369484
47	0x3d11dc4e	0.03561049
48	0xbd8ab692	-0.06773104
49	0xbc2318b8	-0.009954624
50	0x3dd8621f	0.1056559
51	0xbc109198	-0.008823775
52	0xbdc9f2d5	-0.0986077
53	0xbd9303f6	-0.0717849
54	0x3c5cc658	0.013475023
55	0x3c5d2700	0.013498068
56	0x3b1bf740	0.0023798496
57	0x3d578332	0.052615352
58	0xbcae857c	-0.021303885
59	0xbdd1bf21	-0.10241533
60	0xbd8d6a76	-0.069050714
61	0x3d20a4ca	0.039219655
62	0x3d81ed69	0.063441105
63	0xbd81a294	-0.063298374
64	0xbdbba6ba	-0.0916266
65	0xbd1d7cfa	-0.038449265
66	0x3b604ba0	0.0034224764
67	0xbd02f7f4	-0.031974748
68	0x3cbf1acc	0.023328207
69	0xbd0d48a2	-0.034493096
70	0xbda335fe	-0.079692826
71	0x3d727dfe	0.059202187
72	0x3dd924b9	0.106027074
73	0x3d5fc0fa	0.054627396
74	0xbda68c0e	-0.08132182
75	0x3d9a74e5	0.07541827
76	0xbd55f16c	-0.05223219
77	0x3b67aa40	0.003534928
78	0x3d0e9ca6	0.03481736
79	0x3dc18c93	0.094506405
80	0x3db377c5	0.087630786
81	0xbc0cbc98	-0.008589886
82	0x3d10d23a	0.035356738
83	0xbc45a470	-0.012063131
84	0xbcd10bc4	-0.025518306
85	0x3d55a86e	0.05216258
86	0x3d75536e	0.059894018
87	0x3dd06f77	0.1017751
88	0xbda9b392	-0.082862034
89	0x3cb8e9a4	0.022572346
90	0x3c1ec930	0.0096915215
91	0xbdccc5ae	-0.09998642
92	0x3db46031	0.088074096
93	0xbc2bd4e8	-0.0104877725
94	0x3d97aff5	0.07406608
95	0x3d494f26	0.049147747
96	0x3da577e3	0.08079507
97	0xbc45a7d0	-0.012063935
98	0x3cb1956c	0.021677695
99	0x3dc7017d	0.09717081
100	0xbd9b84e1	-0.07593704
101	0xbd8e76e6	-0.06956272
102	0x3ca689bc	0.020329349
103	0x3da177b7	0.07884162
104	0x3dc591af	0.096469276
105	0x3dcc9e73	0.09991159
106	0xbda3b970	-0.07994354
107	0xbd846514	-0.064645916
108	0xbcebe1ac	-0.028794132
109	0xbd785f8f	-0.060638007
110	0xbda645ad	-0.08118758
111	0xbcca9964	-0.024731345
112	0x3d5c41aa	0.05377356
113	0x3d519fc2	0.051177748
114	0x3c962b3c	0.018331163
115	0xbd5acce6	-0.053418063
116	0x3da56e03	0.08077624
117	0x3daf04db	0.08545848
118	0x3d831dfb	0.06402203
119	0x3dcec22f	0.10095631
120	0xbc474158	-0.012161575
121	0xbda48388	-0.080329
122	0x3d19a006	0.037506126
123	0x3d8fc819	0.070205875
124	0xbd71f89b	-0.05907498
125	0xbdd8e6db	-0.10590907
126	0x3c3dc0c8	0.011581607
127	0x3daf5ec5	0.08562998
128	0xbd1a2e5a	-0.03764186
129	0xbd2df3c8	-0.042468816
130	0xbcf22968	-0.02956076
131	0xbbfbdf40	-0.0076865256
132	0x3d9dfadf	0.077138655
133	0xbd9e3d18	-0.077264965
134	0x3db29c73	0.087212466
135	0xbd917092	-0.07101549
136	0x3db79517	0.089639835
137	0x3dd1ebf3	0.10250082
138	0x3d12b61e	0.03581821
139	0x3c11c120	0.008896142
140	0xbc0d0c60	-0.008608907
141	0xbb1c78c0	-0.0023875684
142	0xbda5d344	-0.08096936
143	0xbd0e8e9c	-0.03480397
144	0x3da1d44d	0.07901821
145	0xbc65fbc0	-0.014037073
146	0xbd9a81f4	-0.07544318
147	0xbd81d6b0	-0.063397765
148	0xbcaaf200	-0.020867348
149	0xbdaa2a4c	-0.08308849
150	0x3cd61dd4	0.02613727
151	0x3bfd33d0	0.007727124
152	0xbdaf91bb	-0.08572718
153	0xbcb01fd4	-0.021499552
154	0xbd495eb4	-0.04916258
155	0x3d56c586	0.052434467
156	0xba3a8c00	-0.00071161985
157	0xbda3ffaa	-0.080077484
158	0xbd72571c	-0.059165105
159	0xbd70fdb3	-0.058835696
160	0xbcc7abbc	-0.024373882
161	0xbd8a009d	-0.06738398
162	0xbd2480c8	-0.040161878
163	0x3c8335a8	0.016016796
164	0x3d753386	0.05986359
165	0xbda8d002	-0.08242799
166	0xbdce2f7d	-0.100676514
167	0xbc4ec568	-0.0126203075
168	0x3d043a7e	0.032282345
169	0xbd8a806c	-0.06762776
170	0x3cc0017c	0.023438208
171	0xbdbd0911	-0.09230245
172	0xbcd75840	-0.026287198
173	0x3dd2b241	0.102879055
174	0x3d7f57fa	0.06233976
175	0xbdb01283	-0.08597281
176	0xbd3b75e7	-0.045766737
177	0x3d98aad1	0.07454456
178	0x3dbdfd75	0.09276859
179	0xbcfaa53c	-0.030596368
180	0x3c8f4674	0.01748965
181	0x3ce7e98c	0.028309606
182	0x3d5ed132	0.054398723
183	0xbdbc2237	-0.091862135
184	0x3d1de146	0.038544916
185	0xbcd58b94	-0.026067533
186	0xbd8d06b1	-0.06886042
187	0x3da622ff	0.08112144
188	0xbd333bc2	-0.04375816
189	0xbca64054	-0.020294346
190	0xbd9709c2	-0.07374908
191	0xbd888382	-0.06665708
192	0xbd7ecef4	-0.062209085
193	0x3d0bf3e2	0.03416813
194	0x3d773c0e	0.060360007
195	0x3ca3071c	0.019900851
196	0xbd71c351	-0.05902416
197	0xbd208b06	-0.039195083
198	0xbdd84c4c	-0.105614275
199	0x3dcd8c4d	0.10036526
200	0xbdd7d2ad	-0.1053823
201	0xbc1f2df8	-0.00971555
202	0xbd90833d	-0.07056282
203	0x3d23478e	0.03986316
204	0x3db4bcd3	0.08825078
205	0x3bc80a40	0.0061047375
206	0xbbc3d220	-0.0059759766
207	0x3dd0f00f	0.102020375
208	0x3b9926f0	0.004673831
209	0xbce2dbd4	-0.027692713
210	0x3da41045	0.08010916
211	0x3d84c1d7	0.064822845
212	0x3d9c6fdf	0.07638525
213	0x3dc46e43	0.09591343
214	0x3bda2490	0.0066571906
215	0x3d2d6eae	0.04234188
216	0xbcea412c	-0.02859553
217	0xbd65ad9a	-0.056073762
218	0xbd56b00e	-0.052413993
219	0xbd4cfd45	-0.050046224
220	0x3d63cd0a	0.055615462
221	0xbdd734bc	-0.10508105
222	0xbdd3566b	-0.10319217
223	0xbd9b06d2	-0.0756966
224	0xbda834c2	-0.08213188
225	0xba834540	-0.0010015145
226	0xbda51d52	-0.08062233
227	0x3dae710b	0.08517655
228	0xbdcfd5f3	-0.101482294
229	0xbcdee4f4	-0.027208783
230	0xbd8535ff	-0.065044396
231	0x3daf0653	0.08546128
232	0x3d72a6ae	0.05924099
233	0x3d9179f9	0.071033426
234	0x3d4fff5a	0.05078063
235	0xbd9abd84	-0.075556785
236	0x3d015b46	0.031581186
237	0x3cf55304	0.029946811
238	0xbd917c46	-0.071037814
239	0x3ce260f4	0.027634121
240	0xbd1cb244	-0.038255945
241	0x3c8e0f2c	0.017341219
242	0xbdbe7618	-0.09299868
243	0x3dbcf9bb	0.0922732
244	0xbdc1b10e	-0.094575986
245	0xbd3c808f	-0.04602104
246	0xbdd44ac6	-0.103658244
247	0x3da19b51	0.078909524
248	0x3b24a0c0	0.0025120229
249	0x3c0fa790	0.008767977
250	0xbcffa44c	-0.031206273
251	0xbd090e9c	-0.0334612
252	0x3c8aae7c	0.016928904
253	0x3ddad909	0.106859274
254	0x3d1953a6	0.03743329
255	0x3d4d0c5e	0.050060622

sequential_2/dense_6/MatMul/ReadVariableOp:0 f4 [100, 256]
0	0x3b412a00	0.0029474497
1	0xbd4ef624	-0.050527707
2	0xbdcbe892	-0.09956469
3	0x3dbdd8ee	0.09269892
4	0xbd523c56	-0.051327072
5	0xbde5ef44	-0.11227277
6	0x3dc317da	0.09526034
7	0xbd1e1fd2	-0.038604565
8	0x3d52ae4c	0.051435754
9	0x3db7a2a6	0.089665696
10	0x3dae0acc	0.08498153
11	0xbd772e60	-0.06034696
12	0x3df4d630	0.119549155
13	0xbd8242d0	-0.063604
14	0xbd4d509a	-0.050125696
15	0x3d9373c8	0.07199818
16	0x3d6580dc	0.056031093
17	0x3d97e8d4	0.07417455
18	0xbddb8683	-0.107190154
19	0x3d160af0	0.036631525
20	0xbd413a50	-0.04717475
21	0xbd19ebda	-0.03757844
22	0x3d9a9cfa	0.07549472
23	0xbdc34a3c	-0.095356435
24	0xbda668f6	-0.081254885
25	0x3d9ed58e	0.07755576
26	0xbd3799d2	-0.04482443
27	0x3da27342	0.0793214
28	0x3d95ca4c	0.07313976
29	0xbda2fb92	-0.079581395
30	0xbd87a58b	-0.06623372
31	0xbdd17380	-0.10227108
32	0xbd194eee	-0.03742879
33	0x3d799e2c	0.06094186
34	0x3cb1ebb8	0.021718845
35	0xbdeb2570	-0.1148175
36	0x3dd2943e	0.10282181
37	0x3e03d384	0.12873656
38	0xbdd5a180	-0.10431194
39	0xbdf564cd	-0.11982117
40	0xbdac51e2	-0.084140554
41	0x3d2f83b4	0.04285021
42	0xbc7a5ac0	-0.015280426
43	0x3d179ee0	0.03701675
44	0xbdf8d6ea	-0.121503666
45	0xbd9e799c	-0.07738039
46	0x3cf2c7d8	0.029636309
47	0xbdfff1b6	-0.124972746
48	0x3d848310	0.06470311
49	0x3de1d88e	0.11027633
50	0xbe040736	-0.12893376
51	0x3da9cd06	0.08291058
52	0x3d4a78c0	0.049431562
53	0x3d6a8e40	0.057264566
54	0xbb831b60	-0.004001066
55	0xbc1305f0	-0.008973584
56	0xbd8d3d81	-0.068964966
57	0xbc9c375c	-0.019069366
58	0xbdad75b6	-0.08469717
59	0xbd6a258a	-0.057164706
60	0xbdf1a711	-0.117994435
61	0xbd9ac55a	-0.07557173
62	0xbde02c94	-0.109460026
63	0xbd5c6c82	-0.05381442
64	0xbd892894	-0.06697193
65	0x3de3a104	0.11114696
66	0x3dac162a	0.08402665
67	0xbd930a98	-0.07179755
68	0xbde1ea4f	-0.11031019
69	0xbdaae365	-0.08344153
70	0xbe006ffe	-0.12542722
71	0x3db3d138	0.0878014
72	0xbd4fd240	-0.05073762
73	0xbbf94ff0	-0.0076084062
74	0xbdfb4572	-0.12269105
75	0xbe02412c	-0.12720174
76	0x3de4ca1c	0.11171362
77	0x3dee15be	0.11625241
78	0x3de4fcba	0.11181016
79	0x3dd7e622	0.10541941
80	0x3dfc30c4	0.12313989
81	0xbdac12ba	-0.08402009
82	0xbd40e396	-0.047092043
83	0xbd02a34e	-0.03189402
84	0xbb9708e0	-0.0046092123
85	0x3cc036c0	0.023463607
86	0x3d83154e	0.06400548
87	0x3d237dbc	0.03991483
88	0xbdd778c6	-0.105210826
89	0x3d8db26e	0.069187984
90	0x3dd44c58	0.10366124
91	0xbc55e4a0	-0.013054997
92	0xbcd22c4c	-0.025655888
93	0xbd0bbb0e	-0.034113936
94	0xbdcb4562	-0.09925343
95	0x3cd9ca70	0.026585788
96	0xbce79bd8	-0.028272554
97	0x3da3fab8	0.08006805
98	0x3d5a923c	0.053362116
99	0xbd9cd6d2	-0.07658161
100	0x3de9002e	0.113769874
101	0x3cc95bd8	0.024579927
102	0xbd80d82b	-0.06291231
103	0xbd98d9dc	-0.074634284
104	0x3d9b5aec	0.07585701
105	0x3d8b708a	0.068085745
106	0xbda0473e	-0.07826088
107	0x3d82281e	0.06355308
108	0x3cdda8f8	0.02705811
109	0xbdb6e175	-0.08929721
110	0x3dbf08a2	0.093278185
111	0xbd7bc9e2	-0.061471827
112	0xbdfd0936	-0.123552725
113	0x3dbe91f2	0.093051806
114	0xbc91df50	-0.017806679
115	0x3d2a0248	0.04150608
116	0xbd368158	-0.044556946
117	0xbd32abc0	-0.043620825
118	0x3dc8a9fc	0.09798047
119	0xbdb44f4a	-0.08804186
120	0x3cdece80	0.027198076
121	0x3d730e88	0.05934003
122	0x3dce6f82	0.10079862
123	0x3dcfcb04	0.10146144
124	0x3e0080d0	0.12549138
125	0xbd533dd8	-0.05157265
126	0xbc220ac8	-0.009890266
127	0x3cf314a0	0.02967292
128	0xbcbb15bc	-0.022837512
129	0x3ddbba5c	0.107289046
130	0x3d4b4c08	0.049633056
131	0x3d13ba74	0.036066487
132	0x3d8bd624	0.068279535
133	0x3d74a6d0	0.059729397
134	0xbb35ee40	-0.0027760416
135	0x3c5630b0	0.013073131
136	0x3cb44a90	0.02200821
137	0x3dff75d4	0.12473646
138	0xbde59701	-0.11210442
139	0xbd134256	-0.035951935
140	0xbdb3050a	-0.087411955
141	0x3dc840ba	0.097779706
142	0xbdbf489a	-0.093400195
143	0xbd86abfa	-0.06575771
144	0xbcfdddb4	-0.030989505
145	0x3c1eaab0	0.00968425
146	0x3d1dcc58	0.038524956
147	0x3e00f8aa	0.12594858
148	0xbd8823d8	-0.06647462
149	0x3c5e5ab0	0.013571426
150	0x3d80458c	0.06263265
151	0xbdae3ec2	-0.08508064
152	0x3d7a9938	0.061181277
153	0xbd85e0da	-0.06537028
154	0x3d40b684	0.04704906
155	0xbc98e388	-0.018663183
156	0xbdd644d6	-0.10462348
157	0x3df6f950	0.12059271
158	0x3d89aa3e	0.06721924
159	0x3de1f8a4	0.110337526
160	0x3c33f7c0	0.010984361
161	0xbc63ec48	-0.013911314
162	0x3d0da588	0.03458169
163	0xbce3d6d0	-0.027812392
164	0x3d897762	0.067122236
165	0x3d1eae70	0.038740575
166	0x3d759a24	0.059961453
167	0xbbd1dc40	-0.0064044297
168	0xbda55094	-0.0807201
169	0xbdd5bd87	-0.1043654
170	0xbdf73adb	-0.12071773
171	0xbd85d06e	-0.065338954
172	0xbcc1467c	-0.02359318
173	0x3b385b40	0.002813056
174	0xbd2aa0fe	-0.04165744
175	0x3e04ee36	0.12981495
176	0x3c9da660	0.019244373
177	0x3d639594	0.05556257
178	0x3b473b40	0.0030400306
179	0x3d29bd68	0.041440398
180	0x3d4c11f4	0.04982181
181	0xbdfb04cb	-0.122567736
182	0xbcf5bcb4	-0.029997207
183	0x3d882312	0.06647314
184	0x3d94b70a	0.072614744
185	0xbe045b4e	-0.12925455
186	0x3d91f2a6	0.0712636
187	0xbda4c312	-0.08045019
188	0xbdd6beda	-0.10485621
189	0xbdcf208e	-0.10113631
190	0x3dc61e28	0.096737206
191	0xbd3a54d2	-0.045491047
192	0xbdb85035	-0.08999673
193	0xbc8aaa88	-0.016927019
194	0x3df650c8	0.120271266
195	0x3dc299e4	0.095020086
196	0xbcb3c624	-0.021945067
197	0x3d492b60	0.04911363
198	0x3c410980	0.01178205
199	0x3e03d896	0.1287559
200	0xbbc3be00	-0.0059735775
201	0xbcab2acc	-0.02089443
202	0xbda0084c	-0.078140825
203	0xbd28634e	-0.04111033
204	0xbd226fac	-0.03965728
205	0x3df48fb2	0.1194147
206	0x3c950c00	0.018194199
207	0x3d0d905c	0.0345615
208	0x3dac2efa	0.084073976
209	0xbd3fd9e0	-0.04683864
210	0xbd31fd3c	-0.043454394
211	0xbd8f0764	-0.069838315
212	0xbd93aa11	-0.07210172
213	0xb947fc00	-0.00019071996
214	0xbdcb2228	-0.09918624
215	0xbdae001e	-0.08496116
216	0xbd45c6fc	-0.04828547
217	0x3d59a2f0	0.053133905
218	0x3cffde60	0.031233966
219	0x3dbc91be	0.092074856
220	0xbd445d7e	-0.047940724
221	0xbdb78a2e	-0.089619026
222	0xbca71068	-0.020393565
223	0x3cf5f6c0	0.030024886
224	0x3d671620	0.056417584
225	0x3d385f60	0.04501283
226	0xbde3cc21	-0.11122919
227	0xbd52bb04	-0.051447883
228	0x3d809c80	0.0627985
229	0xbd800f5d	-0.0625293
230	0xbb5b8380	-0.0033495128
231	0xbcbe6708	-0.023242489
232	0xbcf86230	-0.030320257
233	0xbd856fcb	-0.065154634
234	0xbcb1d69c	-0.021708779
235	0xbdf0afe6	-0.117523
236	0xbd9a3876	-0.075303
237	0x3de72b28	0.11287528
238	0x3ddf01ca	0.10889013
239	0x3d67a834	0.056556895
240	0xbd1cca84	-0.03827907
241	0xbe0402d8	-0.1289171
242	0x3d861cd8	0.0654847
243	0x3da827d8	0.082107246
244	0xbe0083fc	-0.12550348
245	0x3da0a366	0.07843666
246	0x3dad7e16	0.084713146
247	0xbd5992b6	-0.05311843
248	0x3d8eb17e	0.06967448
249	0xbd55f1bc	-0.05223249
250	0xbde3ed6a	-0.111292675
251	0x3dc245b2	0.094859496
252	0xbc47c7c8	-0.012193628
253	0xbce1c9e0	-0.027562082
254	0xbda2b9e6	-0.079456136
255	0x3d870ed2	0.065946236
