examples/model_tf.onnx (onnx, 105003 bytes, 2 tensors)

sequential/dense_1/MatMul/ReadVariableOp:0 f4 [256, 2]
0.078580335 0.11279091 -0.019258007 0.0012955964 0.06861146 -0.043199778 0.10205829 0.006028712
0.10387635 -0.06705615 0.03207037 0.10341039 -0.11740278 -0.07661669 -0.043051325 0.10728049
-0.03395898 0.09132548 -0.10653533 -0.072825916 0.04989159 0.0781993 0.08343202 -0.13879883
-0.020701975 -0.09080508 -0.15072319 0.06649481 -0.1272727 -0.11127931 0.066076756 0.10623774
0.12808472 -0.046152927 0.09569381 -0.047684707 -0.13992424 0.0765719 0.02756545 0.10264227
-0.052011587 -0.06677183 -0.11639848 0.09797919 0.05591795 0.11195472 0.046109557 -0.14202125
0.03021413 0.09833181 -0.033709995 -0.058150575 0.09863171 -0.08997833 0.09819621 0.13591516
-0.08561567 0.11478284 0.06249018 0.015045002 -0.003160715 -0.024007514 -0.016767308 -0.048967727
-0.06378963 -0.028467424 0.030801639 -0.005901158 -0.11148736 0.06813116 0.064128414 0.118488014
0.012924314 0.036210448 -0.004379377 -0.0066385567 -0.07032969 0.106604844 -0.04034193 0.07133791
-0.09319198 0.12731352 0.008265018 0.066761136 0.031847417 0.14757451 0.1453147 -0.011968896
0.14221376 -0.13222554 -0.098227054 -0.059942394 0.10236007 -0.11036159 -0.05531487 -0.0001322329
0.073275745 0.10678232 0.08807354 -0.09679504 0.002570361 -0.08734568 0.1507962 0.1266196
-0.116021946 0.05056049 -0.04479272 -0.07771526 -0.0206265 0.12666872 0.04385598 0.008622631
-0.10609819 -0.030907772 -0.10748163 -0.05659356 -0.073993385 0.12111041 -0.073828176 -0.101606175
0.06216277 -0.017174631 -0.06792152 0.06093891 -0.046601847 -0.0040940344 -0.14532748 -0.13293073
0.012232631 -0.07259766 -0.059235513 0.017217785 0.055090323 0.0021162033 0.10005665 -0.07169346
0.07516079 0.032983914 -0.14248766 0.10991955 0.082834035 -0.07465638 -0.07234719 0.13802317
0.09263384 0.124886066 -0.049338475 0.0310511 -0.14544502 0.10049665 -0.004754275 -0.044235818
-0.110786185 -0.08513483 0.017946735 -0.0137141645 0.012614876 0.084072575 0.118923694 0.04556276
0.0331448 0.13337615 -0.056414492 -0.02178827 0.14741236 -0.15027125 -0.08738545 0.06285751
-0.040914215 0.01360561 0.055234194 -0.1402947 -0.14950195 0.00034159422 -0.07646584 0.045584902
-0.046932235 -0.0077002496 -0.020206422 0.029827267 -0.016456649 -0.11100077 -0.13981092 0.09842265
0.06633139 0.0623018 0.08925028 -0.012003168 -0.08813368 0.017189309 -0.0974188 0.06343819
-0.07424335 -0.0810293 0.07413377 0.035901025 -0.064920455 -0.11370541 0.099127054 0.06049329
-0.07927609 -0.05542445 0.12914813 0.030789718 0.017260179 -0.08374313 -0.009278253 0.115785986
0.074102506 0.1344581 0.08101083 0.07958664 -0.07381632 -0.09153992 -0.010222524 -0.120395765
0.103292346 0.095736995 0.10404062 0.12708008 -0.11540288 -0.121946715 -0.07140019 -0.05866436
-0.09713564 0.09795448 0.13227448 -0.05353199 -0.1297755 0.051040486 0.037424117 0.0021246076
0.031556368 -0.10018815 0.09190366 0.08138445 0.1083909 0.050586373 -0.13760032 0.15178767
0.03908676 0.09563923 0.049135953 -0.038074397 0.011745572 -0.022562668 -0.06999694 0.13908488
0.051837325 -0.088255405 0.055857703 -0.05281304 0.037950963 -0.05116818 -0.12508288 -0.084386826
00000000: baee a03d ecfe e63d f8c2 9dbc 00d1 a93a
00000010: 2a84 8c3d 40f2 30bd f003 d13d 808c c53b
00000020: 20bd d43d bc54 89bd 385c 033d d4c8 d33d
00000030: de70 f0bd 36e9 9cbd 9656 30bd e0b5 db3d
00000040: 9218 0bbd da08 bb3d 322f dabd c125 95bd
00000050: 205b 4c3d f426 a03d 68de aa3d 4821 0ebe
00000060: 3097 a9bc 04f8 b9bd 2e57 1abe 6e2e 883d
00000070: c653 02be 68e6 e3bd 4053 873d 2c93 d93d
00000080: a428 033e da0a 3dbd 1efb c33d 0a51 43bd
00000090: 4d48 0fbe bad1 9c3d f0d0 e13c 1c36 d23d
000000a0: 1a0a 55bd abbf 88bd 5462 eebd 50a9 c83d
000000b0: 380a 653d 8448 e53d 60dd 3c3d 056e 11be
000000c0: a083 f73c 3062 c93d 7e13 0abd 4c2f 6ebd
000000d0: 6cff c93d 8f46 b8bd 181b c93d 582d 0b3e
000000e0: 4557 afbd 4413 eb3d b4f5 7f3d 507f 763c
000000f0: 0024 4fbb 68ab c4bc 985b 89bc 6292 48bd
00000100: 23a4 82bd 8434 e9bc b853 fc3c 805e c1bb
00000110: 7c53 e4bd 5a88 8b3d c255 833d d8a9 f23d
00000120: 80c0 533c 6851 143d e080 8fbb 4088 d9bb
00000130: 0309 90bd a453 da3d 943d 25bd 9c19 923d
00000140: 70db bebd 7a5e 023e 006a 073c 10ba 883d
00000150: 7072 023d c61d 173e 60cd 143e 3019 44bc
00000160: 7ca0 113e 2266 07be 442b c9bd 2886 75bd
00000170: 28a2 d13d 4205 e2bd d891 62bd 00a8 0ab9
00000180: 9811 963d b0b0 da3d e65f b43d 7a3c c6bd
00000190: 8073 283b 4be2 b2bd 526a 1a3e 92a8 013e
000001a0: ea9c edbd 8418 4f3d 9278 37bd 2e29 9fbd
000001b0: e8f8 a8bc 72b5 013e 54a2 333d f045 0d3c
000001c0: 024a d9bd 4c32 fdbc 541f dcbd a6ce 67bd
000001d0: d889 97bd bc08 f83d 3a33 97bd e616 d0bd
000001e0: 649e 7e3d d0b1 8cbc 701a 8bbd 149b 793d
000001f0: 94e1 3ebd 4027 86bb bad0 14be fe1e 08be
00000200: 606b 483c 15ae 94bd f0a0 72bd 500c 8d3c
00000210: 64a6 613d 00b0 0a3b 80ea cc3d 05d4 92bd
00000220: e6ed 993d 241a 073d 49e8 11be 801d e13d
00000230: e4a4 a93d 72e5 98bd c32a 94bd f255 0d3e
00000240: d0b6 bd3d 44c4 ff3d 2417 4abd e05e fe3c
00000250: 8aef 14be 30d1 cd3d c0c9 9bbb 9e30 35bd
00000260: dee3 e2bd 2b5b aebd 0805 933c 60b1 60bc
00000270: a0ae 4e3c 3e2e ac3d 448e f33d 04a0 3a3d
00000280: d8c2 073d c293 083e e212 67bd 507d b2bc
00000290: 44f3 163e b5e0 19be 25f7 b2bd 70bb 803d
000002a0: aa95 27bd 10ea 5e3c 403d 623d 6aa9 0fbe
000002b0: 0a17 19be 0018 b339 1f9a 9cbd 3cb7 3a3d
000002c0: 043c 40bd 6052 fcbb f087 a5bc 5058 f43c
000002d0: 18d0 86bc 5f54 e3bd 982a 0fbe d091 c93d
000002e0: c0d8 873d 2c30 7f3d dac8 b63d f0a8 44bc
000002f0: 6e7f b4bd 98d0 8c3c 8283 c7bd e2eb 813d
00000300: e60c 98bd b1f2 a5bd 72d3 973d f40c 133d
00000310: 04f5 84bd 62de e8bd 2003 cb3d d0c7 773d
00000320: 815b a2bd c004 63bd 683f 043e b83a fc3c
00000330: 3865 8d3c 8581 abbd d003 18bc 3421 ed3d
00000340: 0ec3 973d 62af 093e 02e9 a53d 52fe a23d
00000350: 032d 97bd 4879 bbbd 607c 27bc 0e92 f6bd
00000360: f08a d33d c211 c43d 4013 d53d 4821 023e
00000370: 5858 ecbd 33bf f9bd 433a 92bd 0a4a 70bd
00000380: 0def c6bd 5c9c c83d f672 073e 5c44 5bbd
00000390: dee3 04be d40f 513d 084a 193d 003d 0b3b
000003a0: 4041 013d 722f cdbd fc37 bc3d e4ac a63d
000003b0: 0cfc dd3d a833 4f3d 19e7 0cbe 3a6e 1b3e
000003c0: 7019 203d 80de c33d c842 493d e6f3 1bbd
000003d0: 8070 403c 58d5 b8bc 8e5a 8fbd 446c 0e3e
000003e0: 6053 543d 40bf b4bd 0ccb 643d 7c52 58bd
000003f0: 7872 1b3d ba95 51bd ba15 00be 00d3 acbd

sequential/dense/MatMul/ReadVariableOp:0 f4 [100, 256]
-0.026606493 -0.095520765 -0.042996272 -0.03776923 -0.082950294 0.047900602 -0.07998467 -0.092652425
0.07053882 0.020116761 -0.10136347 -0.12422074 -0.093839936 0.020976886 -0.06444314 -0.05402322
-0.107340425 -0.081653364 0.044615477 -0.018549524 -0.107012615 -0.020170458 0.0128941685 -0.07100991
-0.013971984 0.076719806 0.036967725 -0.09981763 -0.09135052 0.12001227 -0.12707122 -0.12184553
-0.008764163 0.07702482 0.1217778 0.11534096 -0.059646763 -0.072450146 0.005452186 -0.00796897
-0.075861104 0.04169923 0.042159855 -0.044615135 -0.10132661 -0.039415635 -0.038695596 0.018650308
-0.07613348 0.09761965 -0.040917 0.0397467 -0.00427106 0.061196074 0.067298874 0.04734102
-0.016487554 -0.015648633 0.037124097 0.12322405 -0.08782928 0.09464648 -0.105898246 -0.09490785
0.067981705 -0.041547097 -0.0897515 -0.059168957 0.08696008 -0.0152556 -0.045775436 0.11208579
0.093568176 0.015270799 -0.103205 0.030636027 0.015385598 0.091220394 0.018761113 0.055485085
0.080645785 -0.1297226 -0.08214331 0.052980974 -0.08393246 -0.051875703 -0.03900394 -0.07743369
0.08215836 -0.0981686 -0.06960676 0.12223029 0.033230692 0.08358391 0.097589165 -0.010918185
-0.11731169 -0.0021098256 -0.122183 0.018569961 0.04967664 9.140372e-05 -0.08832349 0.104265705
-0.01687257 0.10419105 0.10157101 0.12279323 0.015445992 0.011440411 -0.048638046 0.03878984
0.11166586 0.05311589 -0.098601274 -0.12254591 -0.035146624 -0.085786626 0.010585383 0.075738505
0.0030826777 -0.03976267 -0.101428136 0.12134212 -0.12920022 -0.119228 0.021583587 0.0021532476
-0.016589388 0.08280085 0.050009564 0.098269194 -0.045648903 0.07639292 0.030247495 -0.050344497
-0.018977843 -0.08377625 -0.03308849 -0.012291186 -0.106061324 0.049890578 -0.12665425 0.014156863
0.015740931 -0.08895652 -0.08762279 -0.045518592 0.12703925 -0.02701915 0.0838695 0.09166515
0.09292267 0.111095235 0.054095745 -0.021505423 0.011118069 0.027490392 -0.0927259 0.033420607
-0.12774862 -0.033902004 0.05213529 0.05689314 0.051400393 -0.062867366 -0.053567298 0.0646404
-0.09574848 0.106035456 -0.051783524 -0.09683539 0.03616588 -0.020497471 0.12193632 0.038868055
-0.08840972 0.07461949 0.00013810396 0.04590507 0.10790561 0.087372735 0.071818694 0.12445471
-0.0161867 -0.061669856 -0.009384103 0.10018806 0.10564831 0.05652255 0.08004035 -0.06468989
-0.12893663 0.035900056 0.081176355 -0.09849471 -0.12487732 0.017799586 -0.030501015 -0.024068266
0.10867025 0.10126792 0.09621601 -0.11774304 0.035513192 0.01144214 -0.11124343 -0.0119846985
0.04859595 -0.035844035 0.021332532 0.12142104 0.0439201 -0.057661615 0.12429914 0.0046777725
-0.018294632 0.052387774 0.11250509 0.02834566 0.1105541 0.10916796 0.12451947 -0.115239225
-0.11275541 0.09476878 0.016048774 0.11929278 0.11142342 -0.099691406 0.0788665 0.118115366
-0.02434872 -0.036657333 0.09558594 -0.004212737 0.08625257 -0.04426819 -0.02161023 0.01355502
-0.062171742 0.08093494 -0.102328 0.10371636 0.020754963 -0.115131855 -0.11959475 0.08345726
-0.035762228 0.05660352 -0.02176261 0.034390345 0.023846209 -0.09581016 -0.06407939 0.010600299
00000000: dcf5 d9bc 64a0 c3bd dc1c 30bd e8b3 1abd
00000010: d8e1 a9bd 6c33 443d 01cf a3bd 8ec0 bdbd
00000020: a876 903d e8cb a43c a797 cfbd 7167 febd
00000030: 272f c0bd b8d7 ab3c c4fa 83bd 7447 5dbd
00000040: 4cd5 dbbd e139 a7bd b8be 363d 2cf5 97bc
00000050: 6e29 dbbd 843c a5bc 1042 533c a56d 91bd
00000060: c0ea 64bc 461f 9d3d 786b 173d 306d ccbd
00000070: fb15 bbbd fec8 f53d f51e 02be 268a f9bd
00000080: 9097 0fbc 30bf 9d3d a466 f93d e237 ec3d
00000090: 2a50 74bd be60 94bd 40a8 b23b 4890 02bc
000000a0: 115d 9bbd d0cc 2a3d d0af 2c3d 5cbe 36bd
000000b0: 5384 cfbd 4a72 21bd 467f 1ebd 88c8 983c
000000c0: dfeb 9bbd d0ec c73d 9698 27bd 70cd 223d
000000d0: 40f4 8bbb bca8 7a3d fed3 893d a8e8 413d
000000e0: e810 87bc 9031 80bc 700f 183d e45c fc3d
000000f0: d6df b3bd 04d6 c13d 2ee1 d8bd 0c5f c2bd
00000100: fe39 8b3d 4a2d 2abd a2cf b7bd 265b 72bd
00000110: 2018 b23d a0f2 79bc 067f 3bbd 3c8d e53d
00000120: aca0 bf3d 6032 7a3c 255d d3bd 68f8 fa3c
00000130: e013 7c3c c2d1 ba3d e8b0 993c 5444 633d
00000140: 9e29 a53d 00d6 04be c03a a8bd 9402 593d
00000150: c8e4 abbd 9e7b 54bd 98c2 1fbd 8e95 9ebd
00000160: a442 a83d 9e0c c9bd fd8d 8ebd e053 fa3d
00000170: e81c 083d 0a2e ab3d d4dc c73d 30e2 32bc
00000180: 1c41 f0bd 0045 0abb 153b fabd 0820 983c
00000190: bc79 4b3d 00b0 bf38 f2e2 b4bd 4289 d53d
000001a0: 5838 8abc 1e62 d53d 7604 d03d 047b fb3d
000001b0: 3011 7d3c 9070 3b3c b038 47bd 18e2 1e3d
000001c0: 12b1 e43d 0c90 593d 77ef c9bd 5af9 fabd
000001d0: e8f5 0fbd e6b0 afbd 506e 2d3c ca1c 9b3d
000001e0: c006 4a3b 2ede 22bd 8eb9 cfbd 3882 f83d
000001f0: 104d 04be cf2d f4bd 10d0 b03c 801d 0d3b
00000200: 78e6 87bc 7e93 a93d d4d6 4c3d 5c41 c93d
00000210: 58fa 3abd e473 9c3d 98c9 f73c 0836 4ebd
00000220: 6c77 9bbc e292 abbd cc87 07bd f860 49bc
00000230: ae36 d9bd 105a 4c3d a7b1 01be 30f2 673c
00000240: 20f3 803c d62e b6bd 9473 b3bd b471 3abd
00000250: 9416 023e 4457 ddbc c6c3 ab3d f0ba bb3d
00000260: 3e4e be3d e685 e33d 8093 5d3d 242c b0bc
00000270: 9028 363c 8833 e13c 14e7 bdbd 0ce4 083d
00000280: 89d0 02be d4dc 0abd d08b 553d c808 693d
00000290: 3889 523d 9bc0 80bd 6269 5bbd 3062 843d
000002a0: c717 c4bd 1e29 d93d f61a 54bd a251 c6bd
000002b0: ac22 143d 50ea a7bc c0b9 f93d 1c34 1f3d
000002c0: 2810 b5bd 1ad2 983d 00d0 1039 f406 3c3d
000002d0: 9efd dc3d 7af0 b23d ae15 933d 1ce2 fe3d
000002e0: f899 84bc 8899 7cbd c8bf 19bc 662f cd3d
000002f0: 245e d83d 3084 673d 32ec a33d 227c 84bd
00000300: f707 04be f00b 133d ca3f a63d 98b7 c9bd
00000310: aebf ffbd 70d0 913c 44dd f9bc d02a c5bc
00000320: 828e de3d 8e65 cf3d e60c c53d 4323 f1bd
00000330: 4876 113d d077 3b3c 98d3 e3bd 785b 44bc
00000340: 8c0c 473d 32d1 12bd 90c1 ae3c 98ab f83d
00000350: 90e5 333d 962e 6cbd 8c90 fe3d 0048 993b
00000360: a0de 95bc 9094 563d 1269 e63d 2835 e83c
00000370: 306a e23d 7493 df3d 1004 ff3d 8b02 ecbd
00000380: 4fec e6bd 2216 c23d b878 833c c64f f43d
00000390: f631 e43d 022b ccbd c284 a13d 78e6 f13d
000003a0: f876 c7bc 0026 16bd 90c2 c33d 000b 8abb
000003b0: 30a5 b03d 9052 35bd f007 b1bc e015 5e3c
000003c0: cca7 7ebd 38c1 a53d 5891 d1bd 3e69 d43d
000003d0: 5006 aa3c 40ca ebbd 18ee f4bd a4eb aa3d
000003e0: 6a7b 12bd 18d9 673d 8047 b2bc e4dc 0c3d
000003f0: 2059 c33c 1e38 c4bd 0e3c 83bd e0ac 2d3c
